models/onnx/base_rnn.onnx (onnx, 737505 bytes, 9 tensors)

functional_6_1/sequential_1/simple_rnn_1_2/simple_rnn_cell_1/add/ReadVariableOp/resource:0 f4 [64]
0	0x393c8b22	0.00017980908
1	0xbad8e5eb	-0.0016548013
2	0x3aa461c2	0.0012541341
3	0x3c246723	0.010034355
4	0x3b2c5ba8	0.0026299749
5	0x3992136f	0.0002786177
6	0xbbb07fbf	-0.0053863223
7	0x3aab173c	0.0013053189
8	0x3c3236b1	0.010877297
9	0xbb8a6222	-0.004223124
10	0x3a3ff0ef	0.00073219737
11	0x3c582a64	0.0131937
12	0x3b2bdd1a	0.0026224316
13	0xbb4d7a3d	-0.0031353377
14	0xbc02a8f0	-0.007974848
15	0x3c29c0fe	0.010360954
16	0xbaf9cdd1	-0.001905853
17	0xbb71cf0f	-0.0036897098
18	0xbb70f8db	-0.0036769423
19	0x3c137b94	0.009001631
20	0x3a165836	0.00057351904
21	0x3910bb6c	0.0001380273
22	0xba2c8eb1	-0.0006582542
23	0xbc12b738	-0.008954816
24	0x3b722fc3	0.0036954738
25	0x3c7a5ac3	0.015280428
26	0xbbd06ad0	-0.0063603893
27	0x3c27695d	0.010217992
28	0x3ac2209e	0.0014810746
29	0x3c1702b1	0.00921695
30	0x39839980	0.00025100634
31	0xbbf08860	-0.007340476
32	0x3c525f99	0.012840175
33	0xbb95a6e5	-0.0045670145
34	0x3c359175	0.011082043
35	0xbb984ac0	-0.004647583
36	0x3b4b7d81	0.0031050148
37	0x3c22f6d9	0.009946548
38	0xbb874235	-0.0041277655
39	0xb7abbea4	-2.0473562e-05
40	0x3bc4ba1b	0.006003631
41	0x3b867739	0.004103568
42	0x3b18c941	0.0023313316
43	0xbbfd4c7e	-0.007730066
44	0xb89b8040	-7.4148644e-05
45	0x3c6704fa	0.014100308
46	0x3beda8bd	0.007252781
47	0xbab86238	-0.0014067357
48	0xbbd43390	-0.0064758733
49	0xbbb099b3	-0.005389416
50	0x3b73b3fa	0.0037186132
51	0x3bf369be	0.007428377
52	0x3b50fc2d	0.003188859
53	0x3c2a392a	0.010389606
54	0x3bcfd586	0.0063425926
55	0xba805a01	-0.0009792448
56	0x3bbeb682	0.0058200965
57	0x3ab8f351	0.00141106
58	0x3c46e44b	0.01213939
59	0xbad3d990	-0.0016162861
60	0xbb46e37f	-0.0030348
61	0xbb7484c0	-0.003731057
62	0xbbc19f43	-0.005908878
63	0x3be1e05e	0.0068932017

functional_6_1/sequential_1/simple_rnn_1_2/simple_rnn_cell_1/Cast_1/ReadVariableOp/resource:0 f4 [64, 64]
0	0xbe113e47	-0.14183913
1	0xbdff9e64	-0.124813825
2	0xbe2bc6fb	-0.16775124
3	0x3e1d8885	0.1538411
4	0x3cd0483c	0.025425069
5	0x3ea8fe89	0.33006695
6	0x3d752ba7	0.059856083
7	0x3e166bd6	0.14689574
8	0x3e1cd732	0.15316465
9	0xbbd9876c	-0.006638458
10	0x3db91a48	0.09038216
11	0x3db76979	0.08955664
12	0x3da856da	0.082196906
13	0xbe21715a	-0.15765896
14	0x3bd897e4	0.0066099036
15	0xbd5d99bf	-0.0541017
16	0xbe07ce42	-0.13262275
17	0x3e09b356	0.13447317
18	0x3a19d4ab	0.0005868177
19	0x3d1bc549	0.038029943
20	0x3df556fc	0.119794816
21	0xbdf34f62	-0.118803754
22	0x3d90f6f3	0.07078352
23	0x3e2310d8	0.15924394
24	0xbe1e6420	-0.15467882
25	0xbdc143b1	-0.09436739
26	0x39ff8384	0.00048735377
27	0x3d1568eb	0.03647701
28	0x3cdae984	0.026722677
29	0xbde4ee2a	-0.11178239
30	0xbe84b371	-0.25918153
31	0x3dfd395a	0.123644546
32	0xbd6e15eb	-0.05812637
33	0x3d8fa762	0.070143476
34	0x3dd3283d	0.10310409
35	0x3dc08ce6	0.09401874
36	0xbe13f8a6	-0.1445032
37	0xbdaccc4f	-0.08437406
38	0x3c6b35f9	0.01435613
39	0x3c5c3a7a	0.013441676
40	0xbdc0645e	-0.093941435
41	0x3d8e91e9	0.06961424
42	0x3d0d4770	0.034491956
43	0x3d620147	0.055177
44	0x3e7d5428	0.24739134
45	0xbcf4eb8f	-0.02989748
46	0x3ddb30f6	0.10702698
47	0xbe0e3f22	-0.13891271
48	0xbde5ff14	-0.11230293
49	0xbd176ecf	-0.03697091
50	0xbd8b5d2d	-0.06804881
51	0xbe747af6	-0.23875031
52	0x3d7ee3fb	0.062229138
53	0x3dcd2396	0.10016553
54	0xbd8d09a4	-0.068866044
55	0x3e047576	0.12935433
56	0x3e63dac7	0.22251426
57	0x3df7f63b	0.121075116
58	0x3e4029dc	0.18765968
59	0x3e3d3f1c	0.18481106
60	0x3e20179c	0.15634006
61	0x3e4bafef	0.19891332
62	0xbb56687e	-0.003271609
63	0x3d0d3897	0.034477796
64	0xbdcc9a8d	-0.09990416
65	0xbda94eb0	-0.082669616
66	0x3d8c1e91	0.068417676
67	0x3d277699	0.040884588
68	0xbd573277	-0.05253836
69	0x3e1acb38	0.15116584
70	0xbe758706	-0.23977289
71	0x3e1c7b04	0.15281302
72	0xbd85f101	-0.065401085
73	0xbdb5272f	-0.08845364
74	0xbc5cd278	-0.013477914
75	0x3dba4c6e	0.09096609
76	0x3d70bec5	0.058775682
77	0x3d124bca	0.03571681
78	0xbe054d55	-0.13017781
79	0xbd6c9105	-0.05775549
80	0x3d8dc60c	0.0692254
81	0xbdd17645	-0.10227636
82	0x3c04396e	0.008070333
83	0x3d91bc99	0.0711605
84	0xbb918359	-0.0044407067
85	0xbd9a46bb	-0.07533022
86	0x3dbd0b73	0.092306994
87	0xbe156563	-0.14589457
88	0xbe1c31a2	-0.15253308
89	0xbe0e009e	-0.13867423
90	0x3e1f5558	0.155599
91	0xbdce75dc	-0.10081074
92	0x39bce0b1	0.00036025562
93	0x3e5f35dc	0.2179789
94	0xbc9e6101	-0.019333364
95	0xbdbbf48e	-0.091775045
96	0x3dfdd3a6	0.12393884
97	0xbe3f464f	-0.18679164
98	0x3d8edd75	0.06975833
99	0x3db91426	0.09037046
100	0xbe00d946	-0.12582883
101	0x3dff1286	0.12454705
102	0x3e2abbec	0.16673249
103	0xbdbe5908	-0.09294325
104	0x3d4ce505	0.050023098
105	0x3e23cac0	0.15995312
106	0x3d9f9ff7	0.07794183
107	0x3dfa1138	0.122103155
108	0x3ea31b4c	0.31856763
109	0x3e294a22	0.16532186
110	0xbe945057	-0.28967544
111	0x3e0d2d62	0.13786843
112	0x3e521d38	0.20518959
113	0x3e85e232	0.26149136
114	0xbd858e2b	-0.06521257
115	0x3e208058	0.1567396
116	0xbd81bb7e	-0.063345894
117	0xbe044c96	-0.1291984
118	0x3d509246	0.050920747
119	0xbbf7d416	-0.0075631244
120	0xbdc00129	-0.09375221
121	0x3d9e381c	0.07725546
122	0x3cef7147	0.02922882
123	0xbde19e04	-0.11016467
124	0x3d30c2c2	0.043154486
125	0x3debfba4	0.11522606
126	0xbd2a5ec9	-0.0415943
127	0xbe29bb99	-0.16575469
128	0x3dd68b71	0.10475815
129	0x3e5de93c	0.21671003
130	0xbe4e5054	-0.2014783
131	0x3dbed1f0	0.09317386
132	0x3e0b7295	0.13617928
133	0x3cc3fabd	0.023923272
134	0x3ceab6ab	0.028651556
135	0xbc57457d	-0.013139126
136	0x3de03269	0.10947115
137	0x3d5f8ee4	0.05457963
138	0x3c6fdf9b	0.014640714
139	0x3e42d03a	0.19024745
140	0x3c792b9a	0.015208149
141	0x3e122f0b	0.14275758
142	0x3d3697d1	0.044578377
143	0xbdc8abe9	-0.09798414
144	0xbd3ca34e	-0.046054177
145	0x3e43d90f	0.1912577
146	0xbe3b1c63	-0.18272547
147	0x3cc21d22	0.023695532
148	0x3e7ec039	0.24878015
149	0x3e9f17f4	0.31072962
150	0x3bd30cc8	0.0064407326
151	0xbe3b28c6	-0.18277273
152	0x3c8566d2	0.01628438
153	0x3ca5e77a	0.020251978
154	0xbd5481d6	-0.051881634
155	0xbd464c56	-0.048412643
156	0x3dfef0a1	0.1244824
157	0x3e97cec3	0.29649934
158	0x3c8d721d	0.017266328
159	0xbc48ffbd	-0.012268004
160	0xbdcea73f	-0.100904934
161	0x3cbce4fd	0.023058409
162	0x3dba146a	0.09085925
163	0xbe7420ac	-0.23840588
164	0x3d9d40e0	0.076783895
165	0x3cbff481	0.023432018
166	0x3d41d12a	0.047318615
167	0xbe2ad2e3	-0.1668201
168	0x3d94426f	0.07239234
169	0x3e0e1199	0.138739
170	0xbda8d58b	-0.08243855
171	0x3ddcf2b5	0.1078848
172	0x3c2fb39d	0.0107239755
173	0xbddb253a	-0.1070046
174	0xbcfb2b4a	-0.03066029
175	0xbcb821c2	-0.022477034
176	0xbd5ab478	-0.053394765
177	0x3d86247e	0.06549929
178	0xbd13fd85	-0.036130447
179	0xbb479d5d	-0.0030458786
180	0x3c12f7ce	0.008970214
181	0xbd0b9cc7	-0.03408506
182	0xbd02e3b7	-0.031955447
183	0xbd9a023a	-0.07519956
184	0x3ddc1f12	0.10748114
185	0xbe5ddf00	-0.21667099
186	0xbe17ade1	-0.14812423
187	0xbdb9d92c	-0.090746254
188	0x3e53be8e	0.2067816
189	0x3e0774a1	0.13228084
190	0x3e980980	0.29694748
191	0x3cd72167	0.026261045
192	0xba60baff	-0.00085727865
193	0xbe30ba5b	-0.17258589
194	0x3e29347e	0.1652393
195	0x3e15474b	0.14577977
196	0x3c086847	0.008325643
197	0x3de0c07f	0.10974216
198	0xbe6e9416	-0.23298678
199	0x3e8670fb	0.26258072
200	0xbcdd2953	-0.026997244
201	0x3deb7101	0.11496163
202	0xbd3ac415	-0.045597155
203	0xbd8aa389	-0.06769473
204	0x3d889c18	0.066703975
205	0x3d93499c	0.07191774
206	0x3dbe5970	0.092944026
207	0xb98a4469	-0.0002637238
208	0x3de6e56a	0.11274226
209	0x3e48489c	0.19558948
210	0xbd83f92f	-0.064440124
211	0x3da5cbf2	0.0809554
212	0xba4e6cc5	-0.0007874484
213	0x3e5fa2e0	0.21839476
214	0x3d8a38ec	0.06749138
215	0xbc924b17	-0.017858071
216	0x3e4a8bec	0.19779938
217	0x3e0ef02e	0.13958809
218	0x3da7d538	0.08194965
219	0xbe41c505	-0.18922813
220	0x3dcea454	0.10089937
221	0xbdd12861	-0.1021278
222	0xbd3647ee	-0.04450219
223	0xbd8882c7	-0.06665569
224	0xb9e703a9	-0.0004406248
225	0x3cba97c4	0.022777446
226	0x3ded146f	0.11576163
227	0x3d15b455	0.03654893
228	0x3c1520d2	0.009102063
229	0x3d17a8b3	0.03702612
230	0x3c9847a8	0.018588856
231	0xbe018135	-0.12646945
232	0xbcf2eaf6	-0.029653054
233	0xbe39a04c	-0.18127555
234	0xbe180d91	-0.14848925
235	0x3e2c534f	0.16828655
236	0xbe187bd3	-0.14890985
237	0xbdee4283	-0.1163378
238	0xbd51756c	-0.051137373
239	0x3d796f11	0.060896937
240	0xbe0f79d9	-0.14011325
241	0x3dd72f2f	0.105070464
242	0xbdd647c4	-0.10462907
243	0xbe8ac014	-0.2709967
244	0xbdaa1498	-0.08304709
245	0xbd9912eb	-0.074743114
246	0x3e08d72d	0.13363333
247	0xbdb2c988	-0.08729845
248	0xbe2938ab	-0.16525523
249	0xbdc50783	-0.09620573
250	0x3e8fbc22	0.2807322
251	0x3d9032e0	0.07040954
252	0xbe6b6633	-0.22988205
253	0xbd2d6cfc	-0.042340264
254	0xbda12cfc	-0.07869908
255	0x3e06424a	0.13111225

functional_6_1/sequential_1/simple_rnn_1_2/simple_rnn_cell_1/Cast/ReadVariableOp/resource:0 f4 [128, 64]
0	0xbd880e66	-0.06643371
1	0x3db9bde5	0.09069423
2	0xbe1abd0d	-0.1511118
3	0x3ddf42f5	0.10901443
4	0x3cc55dc4	0.024092562
5	0xbdf27344	-0.118383914
6	0xbcc13ecc	-0.023589514
7	0x3e137d98	0.14403379
8	0x3e2affe9	0.16699184
9	0x3cda515c	0.026650123
10	0x3d3d369e	0.046194665
11	0x3e0f285e	0.13980243
12	0x3dd83f0a	0.10558899
13	0xbdd6e1ff	-0.10492324
14	0xbd911466	-0.07083969
15	0xbd911662	-0.07084347
16	0x3dd2983d	0.102829434
17	0xbcb7da11	-0.02244285
18	0xbbe004d8	-0.006836515
19	0x3e1827f4	0.14858991
20	0xbd4b1171	-0.04957718
21	0xbe32b822	-0.17453054
22	0x3ac2f9e8	0.0014875503
23	0x3dd607e4	0.10450724
24	0xbdc411c2	-0.095736995
25	0xbd0dee5e	-0.034651153
26	0xbd67b55d	-0.056569446
27	0x3da58488	0.08081919
28	0x3e0c938d	0.13728161
29	0xbe0a4a36	-0.13504872
30	0xbdd79ad3	-0.10527577
31	0xbda1d9bb	-0.07902857
32	0x3cb785e3	0.02240271
33	0xbc303049	-0.0107537
34	0x3daa9eb1	0.08331049
35	0xbdf32063	-0.11871412
36	0xbe2bd5c7	-0.16780768
37	0x3d89b547	0.06724029
38	0xbd6f4947	-0.058419492
39	0xbe38d6d7	-0.18050705
40	0xbab9917a	-0.0014157735
41	0xbb971d4d	-0.004611647
42	0xbd1f1506	-0.03883841
43	0xbdfe46df	-0.12415861
44	0x3e345fc8	0.17614663
45	0x3e0fa7c8	0.14028847
46	0xbdb4f5df	-0.08835959
47	0x3d9c87eb	0.07643112
48	0x3d9ac9f0	0.07558048
49	0xbc9d4f1c	-0.019202761
50	0xbdd3cada	-0.10341425
51	0xbdd38fa9	-0.103301354
52	0xbdc5cea6	-0.09658556
53	0x3da2fc4e	0.079582796
54	0xbd008496	-0.031376444
55	0x3c8115ed	0.015757525
56	0x3ddd3b92	0.10802378
57	0xbd95abae	-0.07308136
58	0xbe3647a8	-0.17800772
59	0x3ddbc5b6	0.1073107
60	0x3a86f931	0.0010297653
61	0x3d2e6de4	0.04258527
62	0xbc9592ba	-0.018258441
63	0x3d96a5f6	0.07355873
64	0x3d425e92	0.04745347
65	0xbe086d58	-0.13322961
66	0x3d0afad7	0.033930626
67	0xbded2eb8	-0.115811765
68	0xbd3d59c8	-0.0462282
69	0xbd564d33	-0.052319717
70	0xbe200705	-0.15627678
71	0xbdd91acb	-0.106008135
72	0x3d1633f9	0.03667066
73	0xbe304cc5	-0.17216785
74	0xbdcdca38	-0.10048336
75	0x3d4f07a7	0.050544407
76	0x3d04701f	0.03233349
77	0x3de6c5de	0.11268209
78	0x3a971e10	0.0011529345
79	0x3c2be262	0.010490986
80	0xbbc72921	-0.006077901
81	0x3d3ae535	0.045628745
82	0xbd8b566f	-0.06803595
83	0x3ca5f182	0.020256761
84	0xbe020571	-0.12697388
85	0x3db86bf1	0.09004963
86	0xbe236f6e	-0.15960476
87	0x3d079e6b	0.033110064
88	0x3c270973	0.010195124
89	0x3e27ba37	0.16379629
90	0xbdce22dd	-0.100652434
91	0x3b9d24d5	0.0047956505
92	0x3d2ff97a	0.04296253
93	0xbe10e836	-0.14151081
94	0x3c30e8eb	0.0107977195
95	0x3da95a53	0.08269181
96	0x3cc5a2f3	0.024125552
97	0x3e2e8bd0	0.17045522
98	0x3d75a00b	0.059967082
99	0xbdb4123b	-0.0879254
100	0x3e0ccad8	0.13749254
101	0x3d366832	0.044532962
102	0xbdbe4390	-0.0929023
103	0x3d862220	0.065494776
104	0xbdaf15b3	-0.08549061
105	0x3b6d310e	0.003619257
106	0x3dc54569	0.096323796
107	0x3db8db16	0.09026162
108	0xbc0d669e	-0.008630423
109	0xbe2c8ccd	-0.16850586
110	0xbdfa1175	-0.12210361
111	0xbdf43b3e	-0.11925362
112	0xbd1017f0	-0.03517908
113	0x3c4bb73e	0.012433825
114	0x3d81da39	0.06340451
115	0xbd81e329	-0.063421555
116	0xbe1038f9	-0.14084233
117	0xbd94ea72	-0.072712794
118	0xbe3139b8	-0.17307174
119	0xbd3fe396	-0.046847902
120	0x3d7e5c54	0.06209977
121	0x3dba2789	0.09089572
122	0x3e095b40	0.13413715
123	0x3d576dd1	0.052594963
124	0xbdeefcaa	-0.116692856
125	0x3cd47642	0.025935296
126	0x3dff14e6	0.12455158
127	0xbd203613	-0.03911407
128	0xbdd22af4	-0.10262099
129	0x3d10ecad	0.03538196
130	0x3e3aef49	0.18255343
131	0xbda327d2	-0.079665795
132	0xbde6ccf6	-0.11269562
133	0xbdbbabb2	-0.09163608
134	0x3e0943c5	0.13404758
135	0xbe0a675e	-0.13515994
136	0xbd9a8b18	-0.07546061
137	0xbdc5221e	-0.09625648
138	0x3d1c8e8e	0.03822189
139	0x3da8f6e2	0.08250214
140	0xbcd0a9ad	-0.025471533
141	0xbe26d088	-0.16290486
142	0xbd4b1055	-0.049576122
143	0xbdf1b739	-0.11802525
144	0xbe189487	-0.14900409
145	0x3d944038	0.07238811
146	0xbe282ff4	-0.16424543
147	0xbe243cee	-0.16038868
148	0x3e1b4189	0.15161718
149	0xbd02c12e	-0.03192251
150	0x3dd71416	0.10501878
151	0x3be9b1c3	0.0071317866
152	0x3e36dfea	0.17858854
153	0x3de4233b	0.11139532
154	0x3d88ca5a	0.066792205
155	0x3d0cf4f0	0.034413278
156	0x3e2eab86	0.17057618
157	0x3d577272	0.052599378
158	0x3d2f33e0	0.04277408
159	0xbdee3a06	-0.11632161
160	0xbdbe6c58	-0.09298009
161	0xbe2b7fa3	-0.16747908
162	0xbc2206cb	-0.009889315
163	0xbd80bfa1	-0.0628655
164	0xbe269ffb	-0.16271965
165	0x3d7676bd	0.06017183
166	0xba517cf6	-0.0007991338
167	0xbe0a04ae	-0.13478348
168	0xbc8d4f42	-0.017249707
169	0xbbd0e8cc	-0.006375408
170	0xbd9c7b43	-0.07640698
171	0xbdbc8293	-0.092045926
172	0xbcb8b537	-0.022547347
173	0xbd85fe50	-0.06542647
174	0xbd68a6ef	-0.056799825
175	0xbd79cd69	-0.06098691
176	0xbe12b69d	-0.14327474
177	0x3c674604	0.014115814
178	0xbe1ea8ae	-0.15494034
179	0xbdad0ec9	-0.08450086
180	0x3e16828a	0.14698234
181	0xbd43a3d6	-0.047763668
182	0xbde697b1	-0.112594016
183	0xbd9e7b07	-0.07738309
184	0xbda9c4a3	-0.082894586
185	0xbe37abeb	-0.17936675
186	0x3c8c4cb6	0.017126422
187	0x3c99af53	0.018760359
188	0x3d823a09	0.063587256
189	0xbca12dd7	-0.019675178
190	0x3dea5fb4	0.11444035
191	0xbe1db4b0	-0.15400958
192	0x3e2589a3	0.16165785
193	0x3dfb2b20	0.12264085
194	0xbe1c5ba8	-0.15269339
195	0xbd3e2114	-0.046418265
196	0xbce9de79	-0.028548466
197	0xbdf88722	-0.121351495
198	0x3e05f548	0.13081849
199	0xbdbe0f94	-0.09280315
200	0x3d038176	0.032105885
201	0x3dfe0630	0.12403524
202	0x3dc6710b	0.0968953
203	0x3dca65e9	0.09882719
204	0x3de4df51	0.11175407
205	0x3cbfb3a8	0.023401096
206	0x3d852a88	0.06502253
207	0x3da1268e	0.07868682
208	0x3d0285fa	0.03186605
209	0x3e08d11e	0.13361022
210	0xbe12ed03	-0.14348225
211	0xbd029eed	-0.031889845
212	0x3d1cda76	0.038294278
213	0xbd96fa01	-0.07371903
214	0x3dd2c890	0.102921605
215	0x3df23c24	0.11827877
216	0x3dc0adbf	0.094081394
217	0x3cce5610	0.025187522
218	0x3dbda252	0.09259476
219	0xbe0d30e9	-0.13788189
220	0xbde94ac9	-0.11391217
221	0x3d90f4ec	0.07077965
222	0xbd94839e	-0.072516665
223	0x3e0f1a07	0.13974772
224	0xbe27c216	-0.16382632
225	0x3dc8f13d	0.098116376
226	0x3e23aea3	0.15984587
227	0x3e1ebd0a	0.155018
228	0x3c2b9134	0.010471631
229	0x3d5339f5	0.051568944
230	0xbdc64f8e	-0.096831426
231	0xbcc705fe	-0.02429485
232	0x3e2980d1	0.16553046
233	0xbe0a0a1a	-0.13480416
234	0xbe170442	-0.14747718
235	0x3e2c0782	0.16799739
236	0x3dfebe70	0.12438667
237	0x3d898d56	0.06716411
238	0xbdd541b5	-0.10412923
239	0xbca44477	-0.020052178
240	0x3d12e748	0.0358651
241	0x3d22fb92	0.039790697
242	0xbe274576	-0.16335091
243	0xbdf75190	-0.12076104
244	0xbdca05d2	-0.098643914
245	0xbd8a8aac	-0.06764731
246	0xbd57643e	-0.052585833
247	0xbcdb93fa	-0.02680396
248	0xbc9594be	-0.018259402
249	0xbdd770c8	-0.10519558
250	0x3b061164	0.0020457143
251	0x3d7319ee	0.0593509
252	0xbe1367b6	-0.14395031
253	0xbd9c3645	-0.076275386
254	0x3c966eab	0.018363317
255	0x3e09bb23	0.13450293

functional_6_1/sequential_1/simple_rnn_1/simple_rnn_cell_1/add/ReadVariableOp/resource:0 f4 [128]
0	0x3c1534d0	0.00910683
1	0xbbb9bd99	-0.0056683538
2	0xbb08579d	-0.0020804175
3	0xbb72f3f3	-0.0037071675
4	0xbc26e9b0	-0.010187551
5	0x3a25f1d3	0.0006330285
6	0x3c175a27	0.009237803
7	0x3b870d02	0.0041214237
8	0xbbea0fa1	-0.0071429764
9	0x3a74f9f5	0.0009345108
10	0x3b266866	0.0025391816
11	0xbc2825ad	-0.010262889
12	0x39ddc417	0.00042298503
13	0x3abe627c	0.00145252
14	0x3b079bbe	0.0020692195
15	0x3a1257d8	0.0005582548
16	0x38a2ecbc	7.768857e-05
17	0xbad025a8	-0.0015880363
18	0xb9581f86	-0.00020611109
19	0xbb821d9a	-0.003970814
20	0xbc35ee1f	-0.011104136
21	0xb94ac30b	-0.0001933688
22	0xbbbeec94	-0.005826542
23	0xba8392e0	-0.0010038279
24	0xba379557	-0.00070031494
25	0x395c33a4	0.00021000073
26	0xbb9e5244	-0.004831584
27	0x3b7c3f49	0.003848987
28	0x3c15b76b	0.0091379685
29	0x3adff01f	0.0017085111
30	0x3c3e8c52	0.011630135
31	0xbbf37c99	-0.0074306247
32	0xbc1b455a	-0.009476984
33	0x3bec8dcd	0.0072190524
34	0x3bb6cb66	0.005578446
35	0xbc514914	-0.012773771
36	0x3b9ac93d	0.0047236965
37	0x3c6de9f1	0.014521108
38	0xbbb5342d	-0.0055299015
39	0xbb845913	-0.004038939
40	0x3bf4ed06	0.0074745445
41	0x3c285e2d	0.0102763595
42	0xbae82ab8	-0.0017712926
43	0xbc71acbf	-0.014750659
44	0x3b08b092	0.0020857197
45	0xbac22921	-0.0014813283
46	0xbbf0a03f	-0.0073433216
47	0xbc626825	-0.013818775
48	0x3b92a8a5	0.0044756704
49	0xbb302da6	-0.0026882677
50	0xbc272c07	-0.010203368
51	0xb9459243	-0.00018841871
52	0x393c4582	0.00017954971
53	0xbb8e6b35	-0.004346276
54	0xba83dc5b	-0.0010060178
55	0xbb614a29	-0.0034376478
56	0x3bf98d29	0.0076157046
57	0xb92c90d7	-0.00016457155
58	0xbba1ebc5	-0.004941436
59	0x39b209a5	0.0003395799
60	0xbc53b804	-0.012922291
61	0x3c1d1a45	0.009588783
62	0xbc4c7a95	-0.012480398
63	0xbbd1469e	-0.006386592
64	0xbc0d003b	-0.008606012
65	0xbc3f9c3a	-0.011694962
66	0xbc32ac18	-0.010905288
67	0xbb45a72f	-0.0030159464
68	0x3c1c5704	0.0095422305
69	0x3b338c16	0.002739673
70	0x3c654ff5	0.013996114
71	0xbbf4a558	-0.0074659996
72	0x3b5954ee	0.0033162194
73	0xbbc2db88	-0.0059465803
74	0xbba7ce01	-0.005120993
75	0xbc0b886d	-0.008516413
76	0x3bcc0561	0.006226227
77	0xbb690a86	-0.003555925
78	0x3ae32980	0.0017331094
79	0x3c0bff83	0.008544805
80	0xbc8020a0	-0.015640557
81	0xbc0d4d3a	-0.008624369
82	0xbb7c22e6	-0.003847295
83	0x3bf8fd03	0.0075985207
84	0xbb9ec21b	-0.0048449165
85	0x3bd2f046	0.006437334
86	0x3bb95822	0.005656258
87	0xbb041373	-0.0020153194
88	0xbbfa3e33	-0.0076368093
89	0xba8d5145	-0.0010781666
90	0x3b2e2506	0.002657236
91	0xbc1e3410	-0.009655967
92	0xbbe70676	-0.0070503308
93	0xb9b30f76	-0.0003415306
94	0x3c48a114	0.012245435
95	0xbb3a458f	-0.0028422808
96	0xbb184f48	-0.0023240615
97	0xbc244d7a	-0.0100282375
98	0x3b75222c	0.0037404401
99	0x3a556f58	0.00081418967
100	0xb7b8ad48	-2.20152e-05
101	0xbb77d8ad	-0.0037818358
102	0xbb79182c	-0.0038008792
103	0x3bba2a6d	0.005681327
104	0x3c219ab7	0.009863547
105	0xbc2a9128	-0.0104105845
106	0xbae9c083	-0.0017833862
107	0xbc9e2f3e	-0.019309636
108	0x3892b9e8	6.99645e-05
109	0x3c6e3009	0.01453782
110	0xbbb65f62	-0.0055655697
111	0x3bf1169c	0.0073574316
112	0x3bd78384	0.006576957
113	0x3b96a401	0.0045971875
114	0xb9b3bfea	-0.00034284528
115	0x3a4e4c55	0.0007869651
116	0xbbe62edd	-0.0070246295
117	0x3c1bed4d	0.009517026
118	0x3b03ca24	0.00201095
119	0x3c60a716	0.013711711
120	0x3bc5db12	0.006038078
121	0xbb49e184	-0.0030804584
122	0x3b21ae04	0.0024670372
123	0xbbe00adf	-0.0068372334
124	0xbbc78219	-0.006088507
125	0x3c34faeb	0.011046152
126	0x3bb76827	0.0055971327
127	0xbbcbb7fa	-0.006217

functional_6_1/sequential_1/simple_rnn_1/simple_rnn_cell_1/Cast_1/ReadVariableOp/resource:0 f4 [128, 128]
0	0xbdceeef6	-0.10104172
1	0xbc5b9644	-0.013402525
2	0x3c8ef25e	0.017449554
3	0xbe24c23e	-0.16089723
4	0x3d835c83	0.064141296
5	0xbde78e69	-0.113064595
6	0x3dcbdf6e	0.09954725
7	0x3d02afe5	0.031906027
8	0xbd81c4bf	-0.063363545
9	0xb8e76ca8	-0.00011035177
10	0x3dbe7e15	0.09301392
11	0xbde18e7d	-0.110135056
12	0x3da43d35	0.08019487
13	0x3ae062cb	0.0017119286
14	0x3b1fa0f4	0.002435741
15	0x3d37dd55	0.044888813
16	0x3d49b9a7	0.049249317
17	0x3c621ee2	0.013801308
18	0xbda282c5	-0.079350986
19	0xbe2d5985	-0.1692868
20	0xbd697a7e	-0.057001583
21	0xbe129928	-0.14316237
22	0x3d4fa099	0.050690267
23	0xbdb6e46a	-0.08930285
24	0xbe16dd42	-0.1473284
25	0x3d362fdc	0.044479236
26	0xbe02565f	-0.1272826
27	0x3cb8155d	0.022471124
28	0xbc3bdffc	-0.011466976
29	0xbce6422c	-0.028107725
30	0x3d272e1e	0.040815465
31	0x3d1fdd2d	0.03902929
32	0xbd49b896	-0.0492483
33	0x3cff483c	0.031162374
34	0x3d614ee6	0.055006884
35	0x3d54c3a7	0.0519444
36	0xbd9809f0	-0.074237704
37	0x3cc0620a	0.023484249
38	0x3c07a24d	0.008278442
39	0x3bab6936	0.005231048
40	0x3e1a0d02	0.15044025
41	0x3e07a9a2	0.13248304
42	0xbcf7ce00	-0.030249596
43	0xbe30dac2	-0.1727095
44	0xbd80e64e	-0.06293927
45	0xbdc3be4e	-0.09557782
46	0x3e1a1b3e	0.15049455
47	0xbd3023a9	-0.04300276
48	0x3dbfb1c9	0.09360082
49	0xbdd2071e	-0.10255264
50	0xbe2f69a0	-0.17130136
51	0x3d352a0f	0.044229563
52	0xbdb242ae	-0.087041244
53	0x3d8b91d5	0.06814925
54	0x3d772fa9	0.060348187
55	0xbe5c1687	-0.21492968
56	0x3d758028	0.059936672
57	0x3de76ee3	0.11300447
58	0xbdb6e931	-0.089311965
59	0x3d4be1f2	0.049776025
60	0xbc9eb6bd	-0.019374246
61	0x3e1a9328	0.15095198
62	0x3dac88ab	0.08424505
63	0x3d6bd115	0.057572443
64	0xbb6e97af	-0.0036406328
65	0x3e0743bf	0.13209437
66	0x3c46ea02	0.012140753
67	0x3dd853d7	0.10562866
68	0xbdf85673	-0.12125864
69	0x3dfd69de	0.12373708
70	0x3d8c286b	0.068436466
71	0xbcc21382	-0.023690943
72	0x3d9f6ae4	0.0778406
73	0x3d191369	0.037372027
74	0xbba828f2	-0.005131834
75	0x3dd859c6	0.10563998
76	0x3c4289c6	0.011873668
77	0x3d78bd75	0.060727555
78	0xbd87cf03	-0.06631281
79	0x3dc4703f	0.09591722
80	0x3e27b0df	0.16376065
81	0x3e12228a	0.14270988
82	0x3da64d8f	0.08120262
83	0xbd6c260e	-0.05765348
84	0xbd3e10dd	-0.0464028
85	0x3cf54369	0.02993937
86	0xbd85e7ab	-0.06538328
87	0x3d1bcb1d	0.0380355
88	0x3d0e0d39	0.03468058
89	0xbda816ae	-0.08207451
90	0xbcb26a56	-0.02177922
91	0x3d81da1f	0.063404314
92	0xbd0a37d0	-0.033744633
93	0x3cf54eb4	0.029944755
94	0xbd071e66	-0.032987975
95	0x3e2d7183	0.16937833
96	0x3c39ac4d	0.011332584
97	0x3d6ab224	0.057298794
98	0xbd5a422a	-0.053285755
99	0xbca16e0f	-0.0197058
100	0x3d94c193	0.07263484
101	0xbd586a5b	-0.052835803
102	0x3c972a2d	0.018452728
103	0xbe0a2b19	-0.13493003
104	0x3b9bc2eb	0.0047534606
105	0xbd1abab1	-0.0377757
106	0xbe35f866	-0.17770538
107	0xbdb7f629	-0.08982498
108	0xbdc1d762	-0.09464909
109	0x3d7d8f72	0.06190438
110	0xbe457440	-0.19282627
111	0x3b321d08	0.0027177949
112	0x3d7f6f49	0.06236199
113	0x3e06ff12	0.13183239
114	0x3da7e42c	0.08197817
115	0x3d988bc1	0.07448531
116	0x3e19fc8d	0.15037747
117	0x3e25af73	0.1618021
118	0xbb0572ac	-0.002036254
119	0xbdb0f19f	-0.086398356
120	0x3a8ab11a	0.0010581345
121	0x3d87bd87	0.06627946
122	0xbc79c515	-0.015244742
123	0x3cfc5062	0.030800048
124	0x3cc7783a	0.02434932
125	0xbcc29436	-0.023752313
126	0xbe61af11	-0.22039439
127	0xbd93a5a0	-0.07209325
128	0x3c93384a	0.017971177
129	0x3d7d9a06	0.061914466
130	0x3d14cbe4	0.036327258
131	0x3ccf2ac9	0.025288956
132	0xbe259465	-0.1616989
133	0xbdb48c39	-0.08815808
134	0x3cbb5af0	0.02287051
135	0xbd3bfa00	-0.045892715
136	0x3c041ba6	0.0080632325
137	0x3ddfa538	0.10920185
138	0x3e503e39	0.20336236
139	0x3e234895	0.15945657
140	0xbd182021	-0.037140016
141	0xbd8cee68	-0.0688141
142	0xbcb0b816	-0.021572154
143	0xbd2b6539	-0.04184458
144	0xbd042cce	-0.03226929
145	0xbd8a683b	-0.06758162
146	0xbd8c3a08	-0.06847006
147	0x3db72818	0.08943194
148	0x3dd84dc1	0.105617054
149	0xbe058df2	-0.13042429
150	0x3d4b3b67	0.049617197
151	0xbc727de3	-0.014800522
152	0x3ce94c21	0.028478684
153	0x3e57ac98	0.21061933
154	0x3d02b9c1	0.03191543
155	0xbb1a8ff4	-0.0023584338
156	0x3c8cb1c1	0.017174603
157	0xbd380efb	-0.04493616
158	0x3d5da8ea	0.054116167
159	0x3d346464	0.044041052
160	0xbdc77a77	-0.09740155
161	0xbac38d9a	-0.001491952
162	0xbd52605d	-0.05136143
163	0x3d78329c	0.06059514
164	0x3c84ee8b	0.016227027
165	0x3ce13857	0.027492685
166	0xbdde20a7	-0.10846072
167	0x3c131a5c	0.0089784525
168	0xbd2c17b2	-0.042014785
169	0xbcdbd5e4	-0.02683539
170	0x3dd34616	0.10316102
171	0xbc86169b	-0.016368201
172	0x3e3cf7b9	0.18453874
173	0xbde8f54b	-0.11374911
174	0x3d9ea689	0.07746608
175	0xbc6e1e37	-0.014533571
176	0x3cbd121a	0.02307992
177	0x3d0e38cf	0.034722146
178	0xbcc596da	-0.024119783
179	0x3e06ac53	0.13151674
180	0xbd28222b	-0.04104821
181	0x3b988ed9	0.0046557006
182	0xbc732f52	-0.014842825
183	0xbd57a682	-0.05264903
184	0x3d761295	0.060076315
185	0x3b8498c5	0.004046532
186	0xbdc86f63	-0.0978687
187	0x3d5d20c3	0.053986322
188	0xbd735f8a	-0.059417285
189	0x3d444b0a	0.047923125
190	0x3d714228	0.058900982
191	0xbdc5453e	-0.096323475
192	0x3b1a6efb	0.0023564685
193	0xbca575c0	-0.02019775
194	0x3ddc1cff	0.10747718
195	0xbe32eb9b	-0.17472689
196	0x3d20aea5	0.039229054
197	0x3e6632d4	0.22480327
198	0xbdaf5028	-0.085602105
199	0xbd65339b	-0.055957418
200	0x3e535328	0.2063719
201	0x3d50472a	0.050849117
202	0x3dbb0803	0.091323875
203	0xbe229d28	-0.15880263
204	0x3db82a97	0.08992498
205	0x3d20b681	0.03923655
206	0x3d5af1ad	0.053453136
207	0x3d2f5278	0.042803258
208	0xbd7c241f	-0.061557885
209	0xbdd35cdf	-0.10320448
210	0xbe2ba19b	-0.16760866
211	0xbe539cbb	-0.20665257
212	0xbd9ecfe7	-0.07754498
213	0xbcc89146	-0.024483334
214	0xbbbb4bd6	-0.0057158275
215	0xbcb1f27b	-0.021722069
216	0xbd728f35	-0.059218604
217	0x3d60e03f	0.054901358
218	0xbd3dcd90	-0.046338618
219	0x3c901005	0.017585764
220	0xbaf89bd3	-0.0018967338
221	0xbd826d9e	-0.06368564
222	0xbd243ab6	-0.040095054
223	0x3c7346f6	0.014848461
224	0xbd867c99	-0.06566734
225	0xbe948e8d	-0.29015008
226	0x3df185ac	0.11793074
227	0x3cf76675	0.030200223
228	0x3c4f6ff4	0.012660969
229	0x3c56574c	0.013082337
230	0x3d8c7077	0.068573885
231	0x3e20dc59	0.15709056
232	0x3d5eced1	0.054396454
233	0xbe1a2e95	-0.15056832
234	0x3ddefa6e	0.108876094
235	0x3da1eefe	0.07906912
236	0x3dab251c	0.083566874
237	0xbd3adba2	-0.045619614
238	0xbe478201	-0.19483186
239	0xbdcb4b73	-0.099265
240	0xbd4da943	-0.05021025
241	0xbe25d23f	-0.16193484
242	0x3d9d9ca3	0.07695892
243	0x3d8125dc	0.06306049
244	0x3e05de67	0.13073121
245	0x3cd0ba48	0.02547945
246	0x3d4345a1	0.047673825
247	0x3d307c70	0.043087423
248	0x3daa434f	0.08313619
249	0xbc8c0329	-0.01709135
250	0x3d0e6a39	0.03476927
251	0xbc09d407	-0.008412368
252	0xbce49a48	-0.027905598
253	0xbd381a2f	-0.044946846
254	0xbd555549	-0.052083287
255	0x3d45f4c6	0.048329137

functional_6_1/sequential_1/simple_rnn_1/simple_rnn_cell_1/Cast/ReadVariableOp/resource:0 f4 [1161, 128]
0	0xbc0c3b6b	-0.008559088
1	0x3d0c104e	0.034195237
2	0x3d9c4804	0.076309234
3	0xbd4b5ffb	-0.04965208
4	0x3d54f6d7	0.051993217
5	0xbd368427	-0.044559624
6	0xbc7c93b5	-0.0154160755
7	0xbd38f724	-0.045157567
8	0x3d964561	0.07337452
9	0xbd4ddb7f	-0.050258156
10	0x3d8db484	0.06919196
11	0xbcc853ad	-0.024453962
12	0x3d08aadc	0.03336607
13	0xbd12c872	-0.03583569
14	0x3d49d950	0.04927951
15	0xbc8eab32	-0.017415617
16	0x3d163592	0.036672182
17	0x3d949eaa	0.07256825
18	0xbc90da1e	-0.017682131
19	0xbd8cf73d	-0.068830945
20	0xbd23f7d3	-0.040031265
21	0xbd3b5bf2	-0.045741983
22	0x3d52666f	0.05136722
23	0x3cd471da	0.025933195
24	0xbd2e98a6	-0.042626046
25	0xbd8cf4d4	-0.06882635
26	0x3cd3cf5f	0.025855718
27	0xbb078533	-0.0020678758
28	0x3d07a397	0.033114996
29	0xbab34e08	-0.0013679871
30	0x3c895db6	0.016768318
31	0x3d173080	0.036911488
32	0xbd5c8ab4	-0.053843215
33	0xbc3bea64	-0.011469457
34	0x3d6ea78e	0.05826526
35	0xbc356a46	-0.011072701
36	0xbc9b37d1	-0.018947514
37	0xbc76a4df	-0.015053957
38	0xbb951aa5	-0.0045502954
39	0x3d7ddc5f	0.06197774
40	0xbd219126	-0.039445065
41	0x3c6804a3	0.014161262
42	0x3c196dd3	0.009364563
43	0xbd122ce9	-0.03568736
44	0xbce662be	-0.028123256
45	0x3c30d865	0.01079378
46	0xbce2772c	-0.027644716
47	0xbcfc678f	-0.0308111
48	0x3d00e600	0.031469345
49	0x3c3f7e70	0.01168786
50	0x3cf10677	0.029422028
51	0x3d74a325	0.0597259
52	0x3ca956a6	0.0206712
53	0x3d618e23	0.055067193
54	0x3bf7cfe0	0.0075626224
55	0xbcc780eb	-0.024353465
56	0x3d84b9ad	0.06480727
57	0xbd060acb	-0.032725137
58	0x3d0d3f0e	0.03448396
59	0x3d5ed119	0.05439863
60	0x3d8231f7	0.06357186
61	0x39f5cf71	0.00046884597
62	0x3c86cbe2	0.01645464
63	0x3d8eb955	0.06968943
64	0x3be67bf1	0.007033818
65	0x3d53b083	0.051682007
66	0xbd272383	-0.04080535
67	0xbd204b13	-0.039134096
68	0x3d7278cd	0.059197236
69	0xba74114a	-0.00093104376
70	0xbceeeb53	-0.029164946
71	0x3cffeb87	0.031240238
72	0x3c431134	0.011905957
73	0xbd59463a	-0.05304549
74	0x3c396a3d	0.011316833
75	0xbcac905f	-0.021064935
76	0xbd55e28a	-0.052217998
77	0xbc99e621	-0.018786492
78	0x3d71a9d0	0.058999836
79	0x3b95d8e0	0.0045729727
80	0xbd768f2a	-0.060195126
81	0xbcbe1e9c	-0.023207955
82	0x3d30af4e	0.043135934
83	0x3d17abf8	0.037029237
84	0xbd278993	-0.040902685
85	0xbce57596	-0.02801017
86	0x3d88f523	0.06687381
87	0x3d89020b	0.06689843
88	0xbb100090	-0.0021972992
89	0xbd08a59e	-0.03336107
90	0xbcf99606	-0.030467045
91	0x3d81a90c	0.06331071
92	0x3cab86ae	0.020938244
93	0xbd006d5b	-0.03135429
94	0x3d532164	0.051545516
95	0x3c2b2d0b	0.010447751
96	0xbd47681b	-0.048683267
97	0xbccb58b5	-0.024822572
98	0xbd763cc4	-0.060116544
99	0x3d6875bc	0.056752905
100	0x3ccc6f39	0.024955379
101	0x3a4231ec	0.00074079516
102	0xbcf08d4f	-0.029364256
103	0x3d8112ce	0.06302415
104	0xbc96fb51	-0.018430384
105	0xbd59648a	-0.053074397
106	0x3c5365f3	0.012902725
107	0x3d3379b3	0.043817233
108	0x3d434720	0.047675252
109	0xbc0b29c8	-0.008493848
110	0x3d03fe8a	0.03222517
111	0xbd9f0da6	-0.07766275
112	0xbbf39277	-0.0074332315
113	0xbd2c1d04	-0.04201986
114	0xbb5867ec	-0.0033020927
115	0x3c25cdcc	0.010119867
116	0xbc861f0d	-0.016372228
117	0x3cd7d2f3	0.026345706
118	0x3ca97dac	0.020689808
119	0xbd7909cc	-0.06080036
120	0x3d315810	0.043296874
121	0x3d5d5171	0.054032747
122	0xbca938db	-0.020656994
123	0xbd1ff6a9	-0.039053593
124	0xbd2e9e00	-0.04263115
125	0x3d0af434	0.033924296
126	0xbd68dc8a	-0.056850947
127	0x3c96131b	0.018319657
128	0xbbca729c	-0.0061782133
129	0x3cab2254	0.020890392
130	0xbc22141d	-0.009892491
131	0x3d939af3	0.072072886
132	0x3cc34d1e	0.023840483
133	0xbd6972f6	-0.0569944
134	0xbc81c90b	-0.015842935
135	0x3b5f006a	0.0034027346
136	0x3d9b9102	0.075960174
137	0x3d64ac91	0.055828635
138	0x3c121dbc	0.008918222
139	0xbce73fc2	-0.028228644
140	0xbc804ec1	-0.015662553
141	0x3d1a3d57	0.037656154
142	0x3cfbf271	0.030755254
143	0x3d4f5439	0.05061743
144	0x3d5c57c3	0.053794634
145	0xbcfaa65f	-0.03059691
146	0x3d8e57a5	0.069503106
147	0xbd857b19	-0.0651762
148	0xbd896bf2	-0.06710042
149	0x3c9f676d	0.019458497
150	0x3d23c699	0.03998432
151	0xbd7461b5	-0.059663493
152	0x3d0bae50	0.034101784
153	0xbd93f74a	-0.07224901
154	0x3d430f9a	0.0476223
155	0xbc31eb79	-0.010859364
156	0xbd37dc98	-0.04488811
157	0xbcaf766e	-0.021418776
158	0x3d3e128b	0.046404403
159	0x3c32f4e3	0.010922643
160	0x3d2f167d	0.042746056
161	0xbcac0a19	-0.021000909
162	0x3d8636da	0.06553431
163	0xbc3b52aa	-0.011433283
164	0x3d268f89	0.04066423
165	0x3cce5508	0.02518703
166	0x3cfaa537	0.030596359
167	0xbb8eba34	-0.0043556932
168	0x3d2009c0	0.0390718
169	0xbbb1183e	-0.005404501
170	0xbd7640e4	-0.06012048
171	0xbd3e773b	-0.046500426
172	0xbc0dd92c	-0.008657735
173	0xbcf1c38c	-0.02951219
174	0x3d34b9a8	0.044122368
175	0x3d01954d	0.031636525
176	0xbcb119ae	-0.02161869
177	0x3d57b92e	0.052666835
178	0xbd83f086	-0.064423606
179	0xbd906af1	-0.070516475
180	0x3d3a13d8	0.04542908
181	0xbb48e230	-0.0030652396
182	0xbd42f045	-0.04759242
183	0x3d292461	0.04129446
184	0xbd2be938	-0.04197046
185	0x3b20b7b0	0.0024523549
186	0x3c734534	0.014848042
187	0xbd14358f	-0.03618389
188	0x3c29a3fa	0.010354036
189	0xbd5f436b	-0.054507654
190	0x3cf743e8	0.030183747
191	0xbd00875e	-0.031379096
192	0x3b3c219a	0.0028706552
193	0x3d2b7982	0.041863926
194	0x3d1c9eb9	0.038237307
195	0x39f7075b	0.00047116991
196	0xbd5c54fb	-0.05379198
197	0x3d79a428	0.060947567
198	0x3d10a15e	0.03531014
199	0xbd62355f	-0.05522668
200	0xbcb1b2b1	-0.021691652
201	0x3cc9ae80	0.02461934
202	0x3ca8afe6	0.020591687
203	0x3c992f49	0.018699305
204	0xbd015c83	-0.031582367
205	0xbce07fbe	-0.027404662
206	0xbc7ea2fa	-0.015541786
207	0x3d5f0a28	0.054453045
208	0x3d8626f3	0.06550398
209	0x3cccb0cf	0.024986653
210	0xbd5f6957	-0.05454382
211	0x3d6c2283	0.0576501
212	0xbca730c3	-0.020408994
213	0xbd88c485	-0.06678108
214	0x3d51d99a	0.05123291
215	0x3c7777fa	0.015104288
216	0xbd13cde1	-0.036085013
217	0x3d4bf71c	0.04979621
218	0x3b885afa	0.004161236
219	0xbd5942c9	-0.053042207
220	0xbd686240	-0.056734324
221	0xbcc5777f	-0.024104832
222	0xbd870ba8	-0.0659402
223	0xbd9f6eb4	-0.07784787
224	0xbccc35e2	-0.024928037
225	0x3ceaa339	0.028642284
226	0x3d48fb2b	0.049067657
227	0xbc79a03a	-0.015235955
228	0xbc736709	-0.014856108
229	0xbd5aa933	-0.053384017
230	0x3cae7e8f	0.021300582
231	0xbd66675a	-0.056250907
232	0xbd302076	-0.042999707
233	0x3d3710cc	0.044693753
234	0xbd2857b5	-0.04109927
235	0xbca34e3e	-0.01993477
236	0xbd4577f1	-0.04821009
237	0xbd2e5aef	-0.04256719
238	0x3c8c0e60	0.017096698
239	0xbc4ed4e9	-0.012624004
240	0xbc25284d	-0.010080409
241	0x3c6aaffa	0.014324183
242	0xbc546409	-0.012963303
243	0xbd2d4992	-0.04230649
244	0xbd12d2e5	-0.035845656
245	0xbcf563bc	-0.029954784
246	0x3d0648f0	0.032784402
247	0xbd86768a	-0.06565578
248	0x3d4d660f	0.05014616
249	0x3b9e46e3	0.0048302277
250	0xbd7a9594	-0.061177805
251	0x3c736468	0.014855482
252	0x3845ddba	4.717496e-05
253	0x3cf91bb6	0.030408721
254	0xbd1d74cd	-0.038441468
255	0xbd91e4cd	-0.071237184

functional_6_1/sequential_1/dense_1_2/Cast/ReadVariableOp:0 f4 [32, 1]
0	0x3e67be4c	0.22631186
1	0x3eaaa607	0.33329794
2	0xbde02f32	-0.10946502
3	0x3e209a3c	0.15683836
4	0xbd9bb2a5	-0.07602433
5	0xbe245a48	-0.16050065
6	0xbe815ee0	-0.25267696
7	0x3d0db621	0.03459752
8	0xbe727fca	-0.2368156
9	0x3dfbaf1d	0.122892596
10	0xbe9d3f12	-0.3071218
11	0x3d18eb6e	0.0373339
12	0xbe6722ef	-0.2257192
13	0x3ecc6856	0.39923352
14	0xbeaae898	-0.3338058
15	0xbe02d5c2	-0.12776855
16	0x3ec05c11	0.3757024
17	0x3ea63a64	0.32466424
18	0xbe7af6b1	-0.24508168
19	0xbd9dfda7	-0.07714396
20	0xbdf8baab	-0.12144979
21	0xbe9b8d9c	-0.30381477
22	0xbec39e7f	-0.3820686
23	0x3e8a9721	0.27068427
24	0xbbcda2d2	-0.006275513
25	0x3ece4ca0	0.40292835
26	0xbec86cde	-0.3914556
27	0xbebb2d91	-0.36558202
28	0x3e9a51cc	0.3014053
29	0x3ec278a5	0.3798267
30	0x3e18aedb	0.14910452
31	0xbda1113a	-0.07864614

functional_6_1/sequential_1/dense_1/Cast/ReadVariableOp:0 f4 [64, 32]
0	0xbe1911e0	-0.14948225
1	0x3e47eccb	0.19523923
2	0x3dc0bbf5	0.0941085
3	0x3e4089c1	0.18802549
4	0xbe416ce8	-0.188892
5	0x3e420bfc	0.18949884
6	0x3e07d9d9	0.13266696
7	0xbe0491a5	-0.12946184
8	0x3d78982e	0.060692005
9	0x3ce6ff2d	0.02819785
10	0xbe3e916a	-0.18610159
11	0xbe05c794	-0.13064414
12	0x3e7942c5	0.24341877
13	0xbcebbd85	-0.028776893
14	0xbe6431e1	-0.22284652
15	0x3e1c90cc	0.1528961
16	0x3dab787c	0.0837259
17	0x3dc93247	0.09824043
18	0x3e2de44f	0.16981624
19	0xbe135618	-0.14388311
20	0x3e75ae43	0.23992257
21	0xbe44da92	-0.19224003
22	0xbdf20e96	-0.11819188
23	0xbe6689f3	-0.22513561
24	0xbde3e911	-0.11128438
25	0xbe546d7a	-0.20744887
26	0x3e55bd9d	0.20873113
27	0xbdfa0e9a	-0.12209816
28	0x3e031835	0.12802203
29	0x3cd20676	0.025637846
30	0x3ca4dd92	0.020125184
31	0xbe6ce971	-0.23135926
32	0xbcc27118	-0.023735568
33	0xbb4ec63c	-0.0031551262
34	0x3d6c1f45	0.05764701
35	0x3e1d816f	0.15381406
36	0x3e1ea330	0.15491939
37	0x3e712922	0.23550847
38	0x3dcc1544	0.099649936
39	0x3d01ce11	0.03169066
40	0xbd4ce345	-0.05002143
41	0x3e7a8eba	0.24468508
42	0xbe272cb3	-0.16325645
43	0x3cd2bb3d	0.025724048
44	0x3e2ee794	0.17080528
45	0xbe0e05eb	-0.13869445
46	0x3e0caba8	0.13737357
47	0xbe196ba3	-0.14982466
48	0xbe3671fe	-0.17816922
49	0x3e70e8d5	0.23526318
50	0xbd8d2050	-0.06890929
51	0xbdba889d	-0.09108088
52	0xbd076308	-0.033053428
53	0xbd963766	-0.07334785
54	0xbe3e3af0	-0.1857717
55	0x3db9bf5e	0.090697035
56	0xbd83f3f2	-0.06443013
57	0x3cd590b2	0.026069973
58	0x3e3b386e	0.18283245
59	0x3e40d494	0.18831092
60	0x3e546df2	0.20745066
61	0x3e4d9a42	0.20078376
62	0xbd461244	-0.048357263
63	0xbbcdac55	-0.006276647
64	0x3e42d4f0	0.19026542
65	0x3ded2451	0.115791924
66	0x3d4d3ba8	0.05010572
67	0x3dedc1f9	0.11609263
68	0xbe18e2b9	-0.14930238
69	0x3e0804d5	0.13283093
70	0x3e5b1373	0.21394138
71	0xbc19ce71	-0.009387598
72	0xbe201941	-0.15634634
73	0xbdc11226	-0.0942729
74	0x3cbb0fb3	0.022834634
75	0x3e68f8a3	0.22751097
76	0xbdbe0586	-0.09278397
77	0xbe6901d4	-0.22754604
78	0x3de4eb31	0.11177672
79	0x3de92174	0.11383334
80	0x3d9dcf78	0.07705587
81	0xbdb30dbf	-0.08742856
82	0x3dc71186	0.09720139
83	0xbe2fe2d3	-0.1717637
84	0xbd7888ba	-0.060677268
85	0xbe159f98	-0.14611661
86	0xbe73033b	-0.23731701
87	0x3cd2c99e	0.025730904
88	0x3e034315	0.12818559
89	0xbdc56e9a	-0.09640236
90	0x3da75ca1	0.081719644
91	0x3d8437a9	0.06455929
92	0x3e679ffa	0.2261962
93	0x3e68a132	0.22717741
94	0xbe670df1	-0.22563912
95	0x3e6f15d2	0.23348168
96	0x3e65ef76	0.22454628
97	0x3ddd3552	0.10801186
98	0xbdc52f41	-0.096281536
99	0x3d202d8c	0.039105937
100	0xbd9fdcb7	-0.0780577
101	0x3e1e9964	0.15488201
102	0x3e0c70d6	0.13714918
103	0x3cac8f48	0.021064416
104	0xbdb1acd0	-0.086755395
105	0xbe1894f9	-0.14900579
106	0xbce703f1	-0.028200122
107	0x3e499762	0.19686654
108	0xbd9d1fcf	-0.07672083
109	0xbddc3d14	-0.10753837
110	0x3d60b7e8	0.054862887
111	0xbe65bee5	-0.22436102
112	0xbe4c659b	-0.19960634
113	0xbcf85b77	-0.030317051
114	0xbe757865	-0.23971708
115	0xbe592bdf	-0.21208142
116	0x3d46522c	0.04841821
117	0x3d0a00bb	0.033692103
118	0xbe0fab46	-0.1403018
119	0xbe3eb0ba	-0.18622103
120	0x3e26bee3	0.16283755
121	0xbde70243	-0.11279728
122	0x3e5d75c5	0.21626957
123	0xbdf1344f	-0.11777555
124	0x3c89cce8	0.01682134
125	0x3e1a7708	0.1508447
126	0x3e3bc5ad	0.18337126
127	0xbe580de4	-0.21099049
128	0xbe0d61e0	-0.13806868
129	0xbe57823e	-0.21045777
130	0x3d0f6151	0.035004918
131	0x3cc49346	0.023996007
132	0x3e11131f	0.1416745
133	0x3e7a46ef	0.24441122
134	0x3e325276	0.17414269
135	0xbe06f0d7	-0.1317781
136	0x3e11a341	0.14222433
137	0xbdbbe277	-0.09174054
138	0x3e5bfeab	0.21483867
139	0xbe381244	-0.17975718
140	0xbe3e95e2	-0.18611863
141	0x3dcca401	0.09992219
142	0xbe658de7	-0.22417413
143	0xbe21e726	-0.15810832
144	0xbe6ada9e	-0.22934958
145	0x3dec2923	0.11531284
146	0x3e047d66	0.1293846
147	0xbcfd9926	-0.030956816
148	0x3e4e44e9	0.20143475
149	0xbce3cee7	-0.02780862
150	0x3e115a13	0.14194517
151	0xbe72e86a	-0.23721471
152	0x3cf19b72	0.029493067
153	0xbc0e1939	-0.008673006
154	0xbd7145f4	-0.058904603
155	0x3e5acca8	0.21367133
156	0xbe376cab	-0.17912547
157	0x3e1dbc96	0.15403971
158	0xbe4ccfb3	-0.20001106
159	0xbcc61262	-0.024178687
160	0x3e558404	0.20851141
161	0xbd88d6e6	-0.066816136
162	0x3e8095de	0.2511434
163	0xbe4e8a3f	-0.20169924
164	0x3e1017ec	0.14071625
165	0xbdb7df85	-0.0897818
166	0xbdc33f6e	-0.09533583
167	0xbe2176d9	-0.15767993
168	0xbe212a76	-0.15738854
169	0xbe383a01	-0.17990877
170	0xbd7a581f	-0.061119195
171	0xbe248279	-0.16065396
172	0x3dfd2300	0.12360191
173	0x3e3f6946	0.18692502
174	0x3e2ba9b2	0.16763952
175	0x3db548d9	0.08851785
176	0x3ca25850	0.019817501
177	0x3dd9ecd1	0.10640872
178	0xbe1399f9	-0.14414205
179	0xbde45877	-0.11149686
180	0x3d9ec401	0.077522285
181	0x3e6ced8c	0.23137492
182	0xbe716bd4	-0.2357629
183	0xbce49af8	-0.027905926
184	0x3d2d9556	0.042378746
185	0x3ba9f7d8	0.005187016
186	0xbe72c134	-0.23706514
187	0x3db54d47	0.0885263
188	0xbd208d21	-0.03919709
189	0x3e0c7265	0.13715513
190	0x3e6472fa	0.22309485
191	0xbe6d5663	-0.23177485
192	0x3d911d67	0.07085686
193	0x3dae3317	0.08505838
194	0x3e46d10a	0.1941568
195	0xbdb26a9a	-0.08711739
196	0x3e009c7a	0.12559691
197	0xbe1f9c92	-0.1558707
198	0x3e4cc13a	0.19995585
199	0x3e3adcba	0.18248263
200	0xbdc0cd89	-0.09414203
201	0xbd9574f7	-0.072977
202	0x3dc2fcbe	0.09520863
203	0x3d744191	0.05963284
204	0x3c0f71e3	0.00875518
205	0xbdf12c9f	-0.11776089
206	0x3e042f70	0.12908721
207	0xbe47090a	-0.19437042
208	0x3df57107	0.11984449
209	0xbcf29f74	-0.029617049
210	0xbe2adc23	-0.16685538
211	0xbe4ebb20	-0.2018857
212	0xbd992fc0	-0.07479811
213	0xbe673fab	-0.22582881
214	0x3e4705e3	0.1943584
215	0x3d6e55e8	0.058187395
216	0x3e0f3b0b	0.13987367
217	0xbdf280bc	-0.118409604
218	0xbe1cb325	-0.15302713
219	0x3d5329e7	0.051553633
220	0x3d87c609	0.06629569
221	0x3c821b9c	0.015882306
222	0x3db1a7da	0.08674593
223	0x3e500e23	0.20317893
224	0xbe7ca6bc	-0.24672979
225	0xbda757dd	-0.081710555
226	0xbd602441	-0.054722074
227	0xbc007867	-0.007841206
228	0xbe00b1ac	-0.12567776
229	0x3d696ccb	0.05698852
230	0x3dad2c5c	0.084557265
231	0x3e475384	0.19465452
232	0x3da0461d	0.07825873
233	0xbe320ac0	-0.17386913
234	0x3bd82aea	0.0065969126
235	0xbcef10bc	-0.029182784
236	0x3d775d36	0.060391627
237	0x3e51b0ef	0.20477651
238	0x3e81a902	0.25324255
239	0x3d9bb5eb	0.076030575
240	0x3e1f7cb6	0.15574917
241	0xbe232a01	-0.15933992
242	0x3e273a87	0.1633092
243	0xbe0b2c3f	-0.13591097
244	0x3dc9084d	0.098160364
245	0xbdb3b526	-0.08774786
246	0x3e3b7f05	0.18310173
247	0xbe22a763	-0.15884165
248	0x3cad2142	0.021134023
249	0xbe2e77d6	-0.17037901
250	0xbd4ce97c	-0.050027356
251	0x3e71e995	0.2362426
252	0xbe334576	-0.17506966
253	0x3e774e0b	0.24150865
254	0x3e70a741	0.23501302
255	0x3e4dbc1f	0.20091294

functional_6_1/sequential_1/dense_1/BiasAdd/ReadVariableOp:0 f4 [32]
0	0x3671db40	3.6039419e-06
1	0x3a043828	0.00050437683
2	0xbc0770b6	-0.0082666185
3	0xbb355c59	-0.0027673452
4	0xbbbb274f	-0.005711473
5	0xbbca9932	-0.006182813
6	0xbbe79924	-0.0070678163
7	0xbaf6ff02	-0.0018844309
8	0xbbeba3d2	-0.0071911598
9	0x3c07366a	0.008252719
10	0xbc407355	-0.011746247
11	0x3b9418a2	0.004519538
12	0xbb596596	-0.0033172122
13	0x3b1cd459	0.002393028
14	0xbbe70e5a	-0.0070512714
15	0xba83a80d	-0.001004459
16	0xbbe0ae23	-0.006856696
17	0xbab035a7	-0.0013443724
18	0xbbd02f02	-0.00635326
19	0xbbe5f0c5	-0.0070172274
20	0xbb5c8a8a	-0.0033651912
21	0xbbf2f736	-0.0074147237
22	0xbbd31fff	-0.006443023
23	0xbaa1c49a	-0.0012341917
24	0x3bcdfbd6	0.0062861247
25	0x3ac30a53	0.0014880396
26	0xbc02c9bd	-0.0079826685
27	0xbc658fbb	-0.014011319
28	0x3b572e5b	0.0032834026
29	0x3b58824f	0.0033036654
30	0x3c0f1a74	0.008734334
31	0xbb9a0e48	-0.0047014095
